Model: "model_4"
__________________________________________________________________________________________________
Layer (type)                    Output Shape         Param #     Connected to                     
==================================================================================================
res_input_1 (InputLayer)        [(None, 224, 224, 3) 0                                            
__________________________________________________________________________________________________
res_conv1_pad (ZeroPadding2D)   (None, 230, 230, 3)  0           res_input_1[0][0]                
__________________________________________________________________________________________________
res_conv1_conv (Conv2D)         (None, 112, 112, 64) 9472        res_conv1_pad[0][0]              
__________________________________________________________________________________________________
res_conv1_bn (BatchNormalizatio (None, 112, 112, 64) 256         res_conv1_conv[0][0]             
__________________________________________________________________________________________________
res_conv1_relu (Activation)     (None, 112, 112, 64) 0           res_conv1_bn[0][0]               
__________________________________________________________________________________________________
res_pool1_pad (ZeroPadding2D)   (None, 114, 114, 64) 0           res_conv1_relu[0][0]             
__________________________________________________________________________________________________
res_pool1_pool (MaxPooling2D)   (None, 56, 56, 64)   0           res_pool1_pad[0][0]              
__________________________________________________________________________________________________
res_conv2_block1_1_conv (Conv2D (None, 56, 56, 64)   4160        res_pool1_pool[0][0]             
__________________________________________________________________________________________________
res_conv2_block1_1_bn (BatchNor (None, 56, 56, 64)   256         res_conv2_block1_1_conv[0][0]    
__________________________________________________________________________________________________
res_conv2_block1_1_relu (Activa (None, 56, 56, 64)   0           res_conv2_block1_1_bn[0][0]      
__________________________________________________________________________________________________
res_conv2_block1_2_conv (Conv2D (None, 56, 56, 64)   36928       res_conv2_block1_1_relu[0][0]    
__________________________________________________________________________________________________
res_conv2_block1_2_bn (BatchNor (None, 56, 56, 64)   256         res_conv2_block1_2_conv[0][0]    
__________________________________________________________________________________________________
res_conv2_block1_2_relu (Activa (None, 56, 56, 64)   0           res_conv2_block1_2_bn[0][0]      
__________________________________________________________________________________________________
res_conv2_block1_0_conv (Conv2D (None, 56, 56, 256)  16640       res_pool1_pool[0][0]             
__________________________________________________________________________________________________
res_conv2_block1_3_conv (Conv2D (None, 56, 56, 256)  16640       res_conv2_block1_2_relu[0][0]    
__________________________________________________________________________________________________
res_conv2_block1_0_bn (BatchNor (None, 56, 56, 256)  1024        res_conv2_block1_0_conv[0][0]    
__________________________________________________________________________________________________
res_conv2_block1_3_bn (BatchNor (None, 56, 56, 256)  1024        res_conv2_block1_3_conv[0][0]    
__________________________________________________________________________________________________
res_conv2_block1_add (Add)      (None, 56, 56, 256)  0           res_conv2_block1_0_bn[0][0]      
                                                                 res_conv2_block1_3_bn[0][0]      
__________________________________________________________________________________________________
res_conv2_block1_out (Activatio (None, 56, 56, 256)  0           res_conv2_block1_add[0][0]       
__________________________________________________________________________________________________
res_conv2_block2_1_conv (Conv2D (None, 56, 56, 64)   16448       res_conv2_block1_out[0][0]       
__________________________________________________________________________________________________
res_conv2_block2_1_bn (BatchNor (None, 56, 56, 64)   256         res_conv2_block2_1_conv[0][0]    
__________________________________________________________________________________________________
res_conv2_block2_1_relu (Activa (None, 56, 56, 64)   0           res_conv2_block2_1_bn[0][0]      
__________________________________________________________________________________________________
res_conv2_block2_2_conv (Conv2D (None, 56, 56, 64)   36928       res_conv2_block2_1_relu[0][0]    
__________________________________________________________________________________________________
res_conv2_block2_2_bn (BatchNor (None, 56, 56, 64)   256         res_conv2_block2_2_conv[0][0]    
__________________________________________________________________________________________________
res_conv2_block2_2_relu (Activa (None, 56, 56, 64)   0           res_conv2_block2_2_bn[0][0]      
__________________________________________________________________________________________________
res_conv2_block2_3_conv (Conv2D (None, 56, 56, 256)  16640       res_conv2_block2_2_relu[0][0]    
__________________________________________________________________________________________________
res_conv2_block2_3_bn (BatchNor (None, 56, 56, 256)  1024        res_conv2_block2_3_conv[0][0]    
__________________________________________________________________________________________________
res_conv2_block2_add (Add)      (None, 56, 56, 256)  0           res_conv2_block1_out[0][0]       
                                                                 res_conv2_block2_3_bn[0][0]      
__________________________________________________________________________________________________
res_conv2_block2_out (Activatio (None, 56, 56, 256)  0           res_conv2_block2_add[0][0]       
__________________________________________________________________________________________________
res_conv2_block3_1_conv (Conv2D (None, 56, 56, 64)   16448       res_conv2_block2_out[0][0]       
__________________________________________________________________________________________________
res_conv2_block3_1_bn (BatchNor (None, 56, 56, 64)   256         res_conv2_block3_1_conv[0][0]    
__________________________________________________________________________________________________
res_conv2_block3_1_relu (Activa (None, 56, 56, 64)   0           res_conv2_block3_1_bn[0][0]      
__________________________________________________________________________________________________
res_conv2_block3_2_conv (Conv2D (None, 56, 56, 64)   36928       res_conv2_block3_1_relu[0][0]    
__________________________________________________________________________________________________
res_conv2_block3_2_bn (BatchNor (None, 56, 56, 64)   256         res_conv2_block3_2_conv[0][0]    
__________________________________________________________________________________________________
res_conv2_block3_2_relu (Activa (None, 56, 56, 64)   0           res_conv2_block3_2_bn[0][0]      
__________________________________________________________________________________________________
res_conv2_block3_3_conv (Conv2D (None, 56, 56, 256)  16640       res_conv2_block3_2_relu[0][0]    
__________________________________________________________________________________________________
res_conv2_block3_3_bn (BatchNor (None, 56, 56, 256)  1024        res_conv2_block3_3_conv[0][0]    
__________________________________________________________________________________________________
res_conv2_block3_add (Add)      (None, 56, 56, 256)  0           res_conv2_block2_out[0][0]       
                                                                 res_conv2_block3_3_bn[0][0]      
__________________________________________________________________________________________________
res_conv2_block3_out (Activatio (None, 56, 56, 256)  0           res_conv2_block3_add[0][0]       
__________________________________________________________________________________________________
res_conv3_block1_1_conv (Conv2D (None, 28, 28, 128)  32896       res_conv2_block3_out[0][0]       
__________________________________________________________________________________________________
res_conv3_block1_1_bn (BatchNor (None, 28, 28, 128)  512         res_conv3_block1_1_conv[0][0]    
__________________________________________________________________________________________________
res_conv3_block1_1_relu (Activa (None, 28, 28, 128)  0           res_conv3_block1_1_bn[0][0]      
__________________________________________________________________________________________________
res_conv3_block1_2_conv (Conv2D (None, 28, 28, 128)  147584      res_conv3_block1_1_relu[0][0]    
__________________________________________________________________________________________________
res_conv3_block1_2_bn (BatchNor (None, 28, 28, 128)  512         res_conv3_block1_2_conv[0][0]    
__________________________________________________________________________________________________
res_conv3_block1_2_relu (Activa (None, 28, 28, 128)  0           res_conv3_block1_2_bn[0][0]      
__________________________________________________________________________________________________
res_conv3_block1_0_conv (Conv2D (None, 28, 28, 512)  131584      res_conv2_block3_out[0][0]       
__________________________________________________________________________________________________
res_conv3_block1_3_conv (Conv2D (None, 28, 28, 512)  66048       res_conv3_block1_2_relu[0][0]    
__________________________________________________________________________________________________
res_conv3_block1_0_bn (BatchNor (None, 28, 28, 512)  2048        res_conv3_block1_0_conv[0][0]    
__________________________________________________________________________________________________
res_conv3_block1_3_bn (BatchNor (None, 28, 28, 512)  2048        res_conv3_block1_3_conv[0][0]    
__________________________________________________________________________________________________
res_conv3_block1_add (Add)      (None, 28, 28, 512)  0           res_conv3_block1_0_bn[0][0]      
                                                                 res_conv3_block1_3_bn[0][0]      
__________________________________________________________________________________________________
res_conv3_block1_out (Activatio (None, 28, 28, 512)  0           res_conv3_block1_add[0][0]       
__________________________________________________________________________________________________
res_conv3_block2_1_conv (Conv2D (None, 28, 28, 128)  65664       res_conv3_block1_out[0][0]       
__________________________________________________________________________________________________
res_conv3_block2_1_bn (BatchNor (None, 28, 28, 128)  512         res_conv3_block2_1_conv[0][0]    
__________________________________________________________________________________________________
res_conv3_block2_1_relu (Activa (None, 28, 28, 128)  0           res_conv3_block2_1_bn[0][0]      
__________________________________________________________________________________________________
res_conv3_block2_2_conv (Conv2D (None, 28, 28, 128)  147584      res_conv3_block2_1_relu[0][0]    
__________________________________________________________________________________________________
res_conv3_block2_2_bn (BatchNor (None, 28, 28, 128)  512         res_conv3_block2_2_conv[0][0]    
__________________________________________________________________________________________________
res_conv3_block2_2_relu (Activa (None, 28, 28, 128)  0           res_conv3_block2_2_bn[0][0]      
__________________________________________________________________________________________________
res_conv3_block2_3_conv (Conv2D (None, 28, 28, 512)  66048       res_conv3_block2_2_relu[0][0]    
__________________________________________________________________________________________________
res_conv3_block2_3_bn (BatchNor (None, 28, 28, 512)  2048        res_conv3_block2_3_conv[0][0]    
__________________________________________________________________________________________________
res_conv3_block2_add (Add)      (None, 28, 28, 512)  0           res_conv3_block1_out[0][0]       
                                                                 res_conv3_block2_3_bn[0][0]      
__________________________________________________________________________________________________
res_conv3_block2_out (Activatio (None, 28, 28, 512)  0           res_conv3_block2_add[0][0]       
__________________________________________________________________________________________________
res_conv3_block3_1_conv (Conv2D (None, 28, 28, 128)  65664       res_conv3_block2_out[0][0]       
__________________________________________________________________________________________________
res_conv3_block3_1_bn (BatchNor (None, 28, 28, 128)  512         res_conv3_block3_1_conv[0][0]    
__________________________________________________________________________________________________
res_conv3_block3_1_relu (Activa (None, 28, 28, 128)  0           res_conv3_block3_1_bn[0][0]      
__________________________________________________________________________________________________
res_conv3_block3_2_conv (Conv2D (None, 28, 28, 128)  147584      res_conv3_block3_1_relu[0][0]    
__________________________________________________________________________________________________
res_conv3_block3_2_bn (BatchNor (None, 28, 28, 128)  512         res_conv3_block3_2_conv[0][0]    
__________________________________________________________________________________________________
res_conv3_block3_2_relu (Activa (None, 28, 28, 128)  0           res_conv3_block3_2_bn[0][0]      
__________________________________________________________________________________________________
res_conv3_block3_3_conv (Conv2D (None, 28, 28, 512)  66048       res_conv3_block3_2_relu[0][0]    
__________________________________________________________________________________________________
res_conv3_block3_3_bn (BatchNor (None, 28, 28, 512)  2048        res_conv3_block3_3_conv[0][0]    
__________________________________________________________________________________________________
res_conv3_block3_add (Add)      (None, 28, 28, 512)  0           res_conv3_block2_out[0][0]       
                                                                 res_conv3_block3_3_bn[0][0]      
__________________________________________________________________________________________________
res_conv3_block3_out (Activatio (None, 28, 28, 512)  0           res_conv3_block3_add[0][0]       
__________________________________________________________________________________________________
res_conv3_block4_1_conv (Conv2D (None, 28, 28, 128)  65664       res_conv3_block3_out[0][0]       
__________________________________________________________________________________________________
res_conv3_block4_1_bn (BatchNor (None, 28, 28, 128)  512         res_conv3_block4_1_conv[0][0]    
__________________________________________________________________________________________________
res_conv3_block4_1_relu (Activa (None, 28, 28, 128)  0           res_conv3_block4_1_bn[0][0]      
__________________________________________________________________________________________________
res_conv3_block4_2_conv (Conv2D (None, 28, 28, 128)  147584      res_conv3_block4_1_relu[0][0]    
__________________________________________________________________________________________________
res_conv3_block4_2_bn (BatchNor (None, 28, 28, 128)  512         res_conv3_block4_2_conv[0][0]    
__________________________________________________________________________________________________
res_conv3_block4_2_relu (Activa (None, 28, 28, 128)  0           res_conv3_block4_2_bn[0][0]      
__________________________________________________________________________________________________
res_conv3_block4_3_conv (Conv2D (None, 28, 28, 512)  66048       res_conv3_block4_2_relu[0][0]    
__________________________________________________________________________________________________
res_conv3_block4_3_bn (BatchNor (None, 28, 28, 512)  2048        res_conv3_block4_3_conv[0][0]    
__________________________________________________________________________________________________
res_conv3_block4_add (Add)      (None, 28, 28, 512)  0           res_conv3_block3_out[0][0]       
                                                                 res_conv3_block4_3_bn[0][0]      
__________________________________________________________________________________________________
res_conv3_block4_out (Activatio (None, 28, 28, 512)  0           res_conv3_block4_add[0][0]       
__________________________________________________________________________________________________
res_conv4_block1_1_conv (Conv2D (None, 14, 14, 256)  131328      res_conv3_block4_out[0][0]       
__________________________________________________________________________________________________
mobile_input_3 (InputLayer)     [(None, 224, 224, 3) 0                                            
__________________________________________________________________________________________________
res_conv4_block1_1_bn (BatchNor (None, 14, 14, 256)  1024        res_conv4_block1_1_conv[0][0]    
__________________________________________________________________________________________________
mobile_conv1 (Conv2D)           (None, 112, 112, 32) 864         mobile_input_3[0][0]             
__________________________________________________________________________________________________
res_conv4_block1_1_relu (Activa (None, 14, 14, 256)  0           res_conv4_block1_1_bn[0][0]      
__________________________________________________________________________________________________
mobile_conv1_bn (BatchNormaliza (None, 112, 112, 32) 128         mobile_conv1[0][0]               
__________________________________________________________________________________________________
res_conv4_block1_2_conv (Conv2D (None, 14, 14, 256)  590080      res_conv4_block1_1_relu[0][0]    
__________________________________________________________________________________________________
mobile_conv1_relu (ReLU)        (None, 112, 112, 32) 0           mobile_conv1_bn[0][0]            
__________________________________________________________________________________________________
res_conv4_block1_2_bn (BatchNor (None, 14, 14, 256)  1024        res_conv4_block1_2_conv[0][0]    
__________________________________________________________________________________________________
mobile_conv_dw_1 (DepthwiseConv (None, 112, 112, 32) 288         mobile_conv1_relu[0][0]          
__________________________________________________________________________________________________
res_conv4_block1_2_relu (Activa (None, 14, 14, 256)  0           res_conv4_block1_2_bn[0][0]      
__________________________________________________________________________________________________
mobile_conv_dw_1_bn (BatchNorma (None, 112, 112, 32) 128         mobile_conv_dw_1[0][0]           
__________________________________________________________________________________________________
res_conv4_block1_0_conv (Conv2D (None, 14, 14, 1024) 525312      res_conv3_block4_out[0][0]       
__________________________________________________________________________________________________
res_conv4_block1_3_conv (Conv2D (None, 14, 14, 1024) 263168      res_conv4_block1_2_relu[0][0]    
__________________________________________________________________________________________________
mobile_conv_dw_1_relu (ReLU)    (None, 112, 112, 32) 0           mobile_conv_dw_1_bn[0][0]        
__________________________________________________________________________________________________
res_conv4_block1_0_bn (BatchNor (None, 14, 14, 1024) 4096        res_conv4_block1_0_conv[0][0]    
__________________________________________________________________________________________________
res_conv4_block1_3_bn (BatchNor (None, 14, 14, 1024) 4096        res_conv4_block1_3_conv[0][0]    
__________________________________________________________________________________________________
mobile_conv_pw_1 (Conv2D)       (None, 112, 112, 64) 2048        mobile_conv_dw_1_relu[0][0]      
__________________________________________________________________________________________________
res_conv4_block1_add (Add)      (None, 14, 14, 1024) 0           res_conv4_block1_0_bn[0][0]      
                                                                 res_conv4_block1_3_bn[0][0]      
__________________________________________________________________________________________________
mobile_conv_pw_1_bn (BatchNorma (None, 112, 112, 64) 256         mobile_conv_pw_1[0][0]           
__________________________________________________________________________________________________
res_conv4_block1_out (Activatio (None, 14, 14, 1024) 0           res_conv4_block1_add[0][0]       
__________________________________________________________________________________________________
mobile_conv_pw_1_relu (ReLU)    (None, 112, 112, 64) 0           mobile_conv_pw_1_bn[0][0]        
__________________________________________________________________________________________________
res_conv4_block2_1_conv (Conv2D (None, 14, 14, 256)  262400      res_conv4_block1_out[0][0]       
__________________________________________________________________________________________________
mobile_conv_pad_2 (ZeroPadding2 (None, 113, 113, 64) 0           mobile_conv_pw_1_relu[0][0]      
__________________________________________________________________________________________________
res_conv4_block2_1_bn (BatchNor (None, 14, 14, 256)  1024        res_conv4_block2_1_conv[0][0]    
__________________________________________________________________________________________________
mobile_conv_dw_2 (DepthwiseConv (None, 56, 56, 64)   576         mobile_conv_pad_2[0][0]          
__________________________________________________________________________________________________
res_conv4_block2_1_relu (Activa (None, 14, 14, 256)  0           res_conv4_block2_1_bn[0][0]      
__________________________________________________________________________________________________
mobile_conv_dw_2_bn (BatchNorma (None, 56, 56, 64)   256         mobile_conv_dw_2[0][0]           
__________________________________________________________________________________________________
res_conv4_block2_2_conv (Conv2D (None, 14, 14, 256)  590080      res_conv4_block2_1_relu[0][0]    
__________________________________________________________________________________________________
mobile_conv_dw_2_relu (ReLU)    (None, 56, 56, 64)   0           mobile_conv_dw_2_bn[0][0]        
__________________________________________________________________________________________________
res_conv4_block2_2_bn (BatchNor (None, 14, 14, 256)  1024        res_conv4_block2_2_conv[0][0]    
__________________________________________________________________________________________________
mobile_conv_pw_2 (Conv2D)       (None, 56, 56, 128)  8192        mobile_conv_dw_2_relu[0][0]      
__________________________________________________________________________________________________
res_conv4_block2_2_relu (Activa (None, 14, 14, 256)  0           res_conv4_block2_2_bn[0][0]      
__________________________________________________________________________________________________
mobile_conv_pw_2_bn (BatchNorma (None, 56, 56, 128)  512         mobile_conv_pw_2[0][0]           
__________________________________________________________________________________________________
res_conv4_block2_3_conv (Conv2D (None, 14, 14, 1024) 263168      res_conv4_block2_2_relu[0][0]    
__________________________________________________________________________________________________
mobile_conv_pw_2_relu (ReLU)    (None, 56, 56, 128)  0           mobile_conv_pw_2_bn[0][0]        
__________________________________________________________________________________________________
res_conv4_block2_3_bn (BatchNor (None, 14, 14, 1024) 4096        res_conv4_block2_3_conv[0][0]    
__________________________________________________________________________________________________
mobile_conv_dw_3 (DepthwiseConv (None, 56, 56, 128)  1152        mobile_conv_pw_2_relu[0][0]      
__________________________________________________________________________________________________
res_conv4_block2_add (Add)      (None, 14, 14, 1024) 0           res_conv4_block1_out[0][0]       
                                                                 res_conv4_block2_3_bn[0][0]      
__________________________________________________________________________________________________
mobile_conv_dw_3_bn (BatchNorma (None, 56, 56, 128)  512         mobile_conv_dw_3[0][0]           
__________________________________________________________________________________________________
res_conv4_block2_out (Activatio (None, 14, 14, 1024) 0           res_conv4_block2_add[0][0]       
__________________________________________________________________________________________________
mobile_conv_dw_3_relu (ReLU)    (None, 56, 56, 128)  0           mobile_conv_dw_3_bn[0][0]        
__________________________________________________________________________________________________
res_conv4_block3_1_conv (Conv2D (None, 14, 14, 256)  262400      res_conv4_block2_out[0][0]       
__________________________________________________________________________________________________
mobile_conv_pw_3 (Conv2D)       (None, 56, 56, 128)  16384       mobile_conv_dw_3_relu[0][0]      
__________________________________________________________________________________________________
res_conv4_block3_1_bn (BatchNor (None, 14, 14, 256)  1024        res_conv4_block3_1_conv[0][0]    
__________________________________________________________________________________________________
mobile_conv_pw_3_bn (BatchNorma (None, 56, 56, 128)  512         mobile_conv_pw_3[0][0]           
__________________________________________________________________________________________________
res_conv4_block3_1_relu (Activa (None, 14, 14, 256)  0           res_conv4_block3_1_bn[0][0]      
__________________________________________________________________________________________________
mobile_conv_pw_3_relu (ReLU)    (None, 56, 56, 128)  0           mobile_conv_pw_3_bn[0][0]        
__________________________________________________________________________________________________
res_conv4_block3_2_conv (Conv2D (None, 14, 14, 256)  590080      res_conv4_block3_1_relu[0][0]    
__________________________________________________________________________________________________
mobile_conv_pad_4 (ZeroPadding2 (None, 57, 57, 128)  0           mobile_conv_pw_3_relu[0][0]      
__________________________________________________________________________________________________
res_conv4_block3_2_bn (BatchNor (None, 14, 14, 256)  1024        res_conv4_block3_2_conv[0][0]    
__________________________________________________________________________________________________
mobile_conv_dw_4 (DepthwiseConv (None, 28, 28, 128)  1152        mobile_conv_pad_4[0][0]          
__________________________________________________________________________________________________
res_conv4_block3_2_relu (Activa (None, 14, 14, 256)  0           res_conv4_block3_2_bn[0][0]      
__________________________________________________________________________________________________
mobile_conv_dw_4_bn (BatchNorma (None, 28, 28, 128)  512         mobile_conv_dw_4[0][0]           
__________________________________________________________________________________________________
res_conv4_block3_3_conv (Conv2D (None, 14, 14, 1024) 263168      res_conv4_block3_2_relu[0][0]    
__________________________________________________________________________________________________
mobile_conv_dw_4_relu (ReLU)    (None, 28, 28, 128)  0           mobile_conv_dw_4_bn[0][0]        
__________________________________________________________________________________________________
res_conv4_block3_3_bn (BatchNor (None, 14, 14, 1024) 4096        res_conv4_block3_3_conv[0][0]    
__________________________________________________________________________________________________
mobile_conv_pw_4 (Conv2D)       (None, 28, 28, 256)  32768       mobile_conv_dw_4_relu[0][0]      
__________________________________________________________________________________________________
res_conv4_block3_add (Add)      (None, 14, 14, 1024) 0           res_conv4_block2_out[0][0]       
                                                                 res_conv4_block3_3_bn[0][0]      
__________________________________________________________________________________________________
mobile_conv_pw_4_bn (BatchNorma (None, 28, 28, 256)  1024        mobile_conv_pw_4[0][0]           
__________________________________________________________________________________________________
res_conv4_block3_out (Activatio (None, 14, 14, 1024) 0           res_conv4_block3_add[0][0]       
__________________________________________________________________________________________________
mobile_conv_pw_4_relu (ReLU)    (None, 28, 28, 256)  0           mobile_conv_pw_4_bn[0][0]        
__________________________________________________________________________________________________
res_conv4_block4_1_conv (Conv2D (None, 14, 14, 256)  262400      res_conv4_block3_out[0][0]       
__________________________________________________________________________________________________
mobile_conv_dw_5 (DepthwiseConv (None, 28, 28, 256)  2304        mobile_conv_pw_4_relu[0][0]      
__________________________________________________________________________________________________
res_conv4_block4_1_bn (BatchNor (None, 14, 14, 256)  1024        res_conv4_block4_1_conv[0][0]    
__________________________________________________________________________________________________
mobile_conv_dw_5_bn (BatchNorma (None, 28, 28, 256)  1024        mobile_conv_dw_5[0][0]           
__________________________________________________________________________________________________
res_conv4_block4_1_relu (Activa (None, 14, 14, 256)  0           res_conv4_block4_1_bn[0][0]      
__________________________________________________________________________________________________
mobile_conv_dw_5_relu (ReLU)    (None, 28, 28, 256)  0           mobile_conv_dw_5_bn[0][0]        
__________________________________________________________________________________________________
res_conv4_block4_2_conv (Conv2D (None, 14, 14, 256)  590080      res_conv4_block4_1_relu[0][0]    
__________________________________________________________________________________________________
mobile_conv_pw_5 (Conv2D)       (None, 28, 28, 256)  65536       mobile_conv_dw_5_relu[0][0]      
__________________________________________________________________________________________________
res_conv4_block4_2_bn (BatchNor (None, 14, 14, 256)  1024        res_conv4_block4_2_conv[0][0]    
__________________________________________________________________________________________________
mobile_conv_pw_5_bn (BatchNorma (None, 28, 28, 256)  1024        mobile_conv_pw_5[0][0]           
__________________________________________________________________________________________________
res_conv4_block4_2_relu (Activa (None, 14, 14, 256)  0           res_conv4_block4_2_bn[0][0]      
__________________________________________________________________________________________________
mobile_conv_pw_5_relu (ReLU)    (None, 28, 28, 256)  0           mobile_conv_pw_5_bn[0][0]        
__________________________________________________________________________________________________
res_conv4_block4_3_conv (Conv2D (None, 14, 14, 1024) 263168      res_conv4_block4_2_relu[0][0]    
__________________________________________________________________________________________________
mobile_conv_pad_6 (ZeroPadding2 (None, 29, 29, 256)  0           mobile_conv_pw_5_relu[0][0]      
__________________________________________________________________________________________________
res_conv4_block4_3_bn (BatchNor (None, 14, 14, 1024) 4096        res_conv4_block4_3_conv[0][0]    
__________________________________________________________________________________________________
mobile_conv_dw_6 (DepthwiseConv (None, 14, 14, 256)  2304        mobile_conv_pad_6[0][0]          
__________________________________________________________________________________________________
res_conv4_block4_add (Add)      (None, 14, 14, 1024) 0           res_conv4_block3_out[0][0]       
                                                                 res_conv4_block4_3_bn[0][0]      
__________________________________________________________________________________________________
mobile_conv_dw_6_bn (BatchNorma (None, 14, 14, 256)  1024        mobile_conv_dw_6[0][0]           
__________________________________________________________________________________________________
res_conv4_block4_out (Activatio (None, 14, 14, 1024) 0           res_conv4_block4_add[0][0]       
__________________________________________________________________________________________________
mobile_conv_dw_6_relu (ReLU)    (None, 14, 14, 256)  0           mobile_conv_dw_6_bn[0][0]        
__________________________________________________________________________________________________
res_conv4_block5_1_conv (Conv2D (None, 14, 14, 256)  262400      res_conv4_block4_out[0][0]       
__________________________________________________________________________________________________
mobile_conv_pw_6 (Conv2D)       (None, 14, 14, 512)  131072      mobile_conv_dw_6_relu[0][0]      
__________________________________________________________________________________________________
res_conv4_block5_1_bn (BatchNor (None, 14, 14, 256)  1024        res_conv4_block5_1_conv[0][0]    
__________________________________________________________________________________________________
mobile_conv_pw_6_bn (BatchNorma (None, 14, 14, 512)  2048        mobile_conv_pw_6[0][0]           
__________________________________________________________________________________________________
res_conv4_block5_1_relu (Activa (None, 14, 14, 256)  0           res_conv4_block5_1_bn[0][0]      
__________________________________________________________________________________________________
mobile_conv_pw_6_relu (ReLU)    (None, 14, 14, 512)  0           mobile_conv_pw_6_bn[0][0]        
__________________________________________________________________________________________________
res_conv4_block5_2_conv (Conv2D (None, 14, 14, 256)  590080      res_conv4_block5_1_relu[0][0]    
__________________________________________________________________________________________________
mobile_conv_dw_7 (DepthwiseConv (None, 14, 14, 512)  4608        mobile_conv_pw_6_relu[0][0]      
__________________________________________________________________________________________________
res_conv4_block5_2_bn (BatchNor (None, 14, 14, 256)  1024        res_conv4_block5_2_conv[0][0]    
__________________________________________________________________________________________________
mobile_conv_dw_7_bn (BatchNorma (None, 14, 14, 512)  2048        mobile_conv_dw_7[0][0]           
__________________________________________________________________________________________________
res_conv4_block5_2_relu (Activa (None, 14, 14, 256)  0           res_conv4_block5_2_bn[0][0]      
__________________________________________________________________________________________________
mobile_conv_dw_7_relu (ReLU)    (None, 14, 14, 512)  0           mobile_conv_dw_7_bn[0][0]        
__________________________________________________________________________________________________
res_conv4_block5_3_conv (Conv2D (None, 14, 14, 1024) 263168      res_conv4_block5_2_relu[0][0]    
__________________________________________________________________________________________________
mobile_conv_pw_7 (Conv2D)       (None, 14, 14, 512)  262144      mobile_conv_dw_7_relu[0][0]      
__________________________________________________________________________________________________
res_conv4_block5_3_bn (BatchNor (None, 14, 14, 1024) 4096        res_conv4_block5_3_conv[0][0]    
__________________________________________________________________________________________________
mobile_conv_pw_7_bn (BatchNorma (None, 14, 14, 512)  2048        mobile_conv_pw_7[0][0]           
__________________________________________________________________________________________________
res_conv4_block5_add (Add)      (None, 14, 14, 1024) 0           res_conv4_block4_out[0][0]       
                                                                 res_conv4_block5_3_bn[0][0]      
__________________________________________________________________________________________________
mobile_conv_pw_7_relu (ReLU)    (None, 14, 14, 512)  0           mobile_conv_pw_7_bn[0][0]        
__________________________________________________________________________________________________
res_conv4_block5_out (Activatio (None, 14, 14, 1024) 0           res_conv4_block5_add[0][0]       
__________________________________________________________________________________________________
mobile_conv_dw_8 (DepthwiseConv (None, 14, 14, 512)  4608        mobile_conv_pw_7_relu[0][0]      
__________________________________________________________________________________________________
res_conv4_block6_1_conv (Conv2D (None, 14, 14, 256)  262400      res_conv4_block5_out[0][0]       
__________________________________________________________________________________________________
mobile_conv_dw_8_bn (BatchNorma (None, 14, 14, 512)  2048        mobile_conv_dw_8[0][0]           
__________________________________________________________________________________________________
res_conv4_block6_1_bn (BatchNor (None, 14, 14, 256)  1024        res_conv4_block6_1_conv[0][0]    
__________________________________________________________________________________________________
mobile_conv_dw_8_relu (ReLU)    (None, 14, 14, 512)  0           mobile_conv_dw_8_bn[0][0]        
__________________________________________________________________________________________________
res_conv4_block6_1_relu (Activa (None, 14, 14, 256)  0           res_conv4_block6_1_bn[0][0]      
__________________________________________________________________________________________________
mobile_conv_pw_8 (Conv2D)       (None, 14, 14, 512)  262144      mobile_conv_dw_8_relu[0][0]      
__________________________________________________________________________________________________
res_conv4_block6_2_conv (Conv2D (None, 14, 14, 256)  590080      res_conv4_block6_1_relu[0][0]    
__________________________________________________________________________________________________
mobile_conv_pw_8_bn (BatchNorma (None, 14, 14, 512)  2048        mobile_conv_pw_8[0][0]           
__________________________________________________________________________________________________
res_conv4_block6_2_bn (BatchNor (None, 14, 14, 256)  1024        res_conv4_block6_2_conv[0][0]    
__________________________________________________________________________________________________
mobile_conv_pw_8_relu (ReLU)    (None, 14, 14, 512)  0           mobile_conv_pw_8_bn[0][0]        
__________________________________________________________________________________________________
res_conv4_block6_2_relu (Activa (None, 14, 14, 256)  0           res_conv4_block6_2_bn[0][0]      
__________________________________________________________________________________________________
mobile_conv_dw_9 (DepthwiseConv (None, 14, 14, 512)  4608        mobile_conv_pw_8_relu[0][0]      
__________________________________________________________________________________________________
res_conv4_block6_3_conv (Conv2D (None, 14, 14, 1024) 263168      res_conv4_block6_2_relu[0][0]    
__________________________________________________________________________________________________
mobile_conv_dw_9_bn (BatchNorma (None, 14, 14, 512)  2048        mobile_conv_dw_9[0][0]           
__________________________________________________________________________________________________
res_conv4_block6_3_bn (BatchNor (None, 14, 14, 1024) 4096        res_conv4_block6_3_conv[0][0]    
__________________________________________________________________________________________________
mobile_conv_dw_9_relu (ReLU)    (None, 14, 14, 512)  0           mobile_conv_dw_9_bn[0][0]        
__________________________________________________________________________________________________
res_conv4_block6_add (Add)      (None, 14, 14, 1024) 0           res_conv4_block5_out[0][0]       
                                                                 res_conv4_block6_3_bn[0][0]      
__________________________________________________________________________________________________
mobile_conv_pw_9 (Conv2D)       (None, 14, 14, 512)  262144      mobile_conv_dw_9_relu[0][0]      
__________________________________________________________________________________________________
res_conv4_block6_out (Activatio (None, 14, 14, 1024) 0           res_conv4_block6_add[0][0]       
__________________________________________________________________________________________________
mobile_conv_pw_9_bn (BatchNorma (None, 14, 14, 512)  2048        mobile_conv_pw_9[0][0]           
__________________________________________________________________________________________________
res_conv5_block1_1_conv (Conv2D (None, 7, 7, 512)    524800      res_conv4_block6_out[0][0]       
__________________________________________________________________________________________________
mobile_conv_pw_9_relu (ReLU)    (None, 14, 14, 512)  0           mobile_conv_pw_9_bn[0][0]        
__________________________________________________________________________________________________
res_conv5_block1_1_bn (BatchNor (None, 7, 7, 512)    2048        res_conv5_block1_1_conv[0][0]    
__________________________________________________________________________________________________
mobile_conv_dw_10 (DepthwiseCon (None, 14, 14, 512)  4608        mobile_conv_pw_9_relu[0][0]      
__________________________________________________________________________________________________
res_conv5_block1_1_relu (Activa (None, 7, 7, 512)    0           res_conv5_block1_1_bn[0][0]      
__________________________________________________________________________________________________
mobile_conv_dw_10_bn (BatchNorm (None, 14, 14, 512)  2048        mobile_conv_dw_10[0][0]          
__________________________________________________________________________________________________
res_conv5_block1_2_conv (Conv2D (None, 7, 7, 512)    2359808     res_conv5_block1_1_relu[0][0]    
__________________________________________________________________________________________________
mobile_conv_dw_10_relu (ReLU)   (None, 14, 14, 512)  0           mobile_conv_dw_10_bn[0][0]       
__________________________________________________________________________________________________
res_conv5_block1_2_bn (BatchNor (None, 7, 7, 512)    2048        res_conv5_block1_2_conv[0][0]    
__________________________________________________________________________________________________
mobile_conv_pw_10 (Conv2D)      (None, 14, 14, 512)  262144      mobile_conv_dw_10_relu[0][0]     
__________________________________________________________________________________________________
res_conv5_block1_2_relu (Activa (None, 7, 7, 512)    0           res_conv5_block1_2_bn[0][0]      
__________________________________________________________________________________________________
mobile_conv_pw_10_bn (BatchNorm (None, 14, 14, 512)  2048        mobile_conv_pw_10[0][0]          
__________________________________________________________________________________________________
res_conv5_block1_0_conv (Conv2D (None, 7, 7, 2048)   2099200     res_conv4_block6_out[0][0]       
__________________________________________________________________________________________________
res_conv5_block1_3_conv (Conv2D (None, 7, 7, 2048)   1050624     res_conv5_block1_2_relu[0][0]    
__________________________________________________________________________________________________
mobile_conv_pw_10_relu (ReLU)   (None, 14, 14, 512)  0           mobile_conv_pw_10_bn[0][0]       
__________________________________________________________________________________________________
res_conv5_block1_0_bn (BatchNor (None, 7, 7, 2048)   8192        res_conv5_block1_0_conv[0][0]    
__________________________________________________________________________________________________
res_conv5_block1_3_bn (BatchNor (None, 7, 7, 2048)   8192        res_conv5_block1_3_conv[0][0]    
__________________________________________________________________________________________________
mobile_conv_dw_11 (DepthwiseCon (None, 14, 14, 512)  4608        mobile_conv_pw_10_relu[0][0]     
__________________________________________________________________________________________________
res_conv5_block1_add (Add)      (None, 7, 7, 2048)   0           res_conv5_block1_0_bn[0][0]      
                                                                 res_conv5_block1_3_bn[0][0]      
__________________________________________________________________________________________________
mobile_conv_dw_11_bn (BatchNorm (None, 14, 14, 512)  2048        mobile_conv_dw_11[0][0]          
__________________________________________________________________________________________________
res_conv5_block1_out (Activatio (None, 7, 7, 2048)   0           res_conv5_block1_add[0][0]       
__________________________________________________________________________________________________
vgg_input_2 (InputLayer)        [(None, 224, 224, 3) 0                                            
__________________________________________________________________________________________________
mobile_conv_dw_11_relu (ReLU)   (None, 14, 14, 512)  0           mobile_conv_dw_11_bn[0][0]       
__________________________________________________________________________________________________
res_conv5_block2_1_conv (Conv2D (None, 7, 7, 512)    1049088     res_conv5_block1_out[0][0]       
__________________________________________________________________________________________________
vgg_block1_conv1 (Conv2D)       (None, 224, 224, 64) 1792        vgg_input_2[0][0]                
__________________________________________________________________________________________________
mobile_conv_pw_11 (Conv2D)      (None, 14, 14, 512)  262144      mobile_conv_dw_11_relu[0][0]     
__________________________________________________________________________________________________
res_conv5_block2_1_bn (BatchNor (None, 7, 7, 512)    2048        res_conv5_block2_1_conv[0][0]    
__________________________________________________________________________________________________
vgg_block1_conv2 (Conv2D)       (None, 224, 224, 64) 36928       vgg_block1_conv1[0][0]           
__________________________________________________________________________________________________
mobile_conv_pw_11_bn (BatchNorm (None, 14, 14, 512)  2048        mobile_conv_pw_11[0][0]          
__________________________________________________________________________________________________
res_conv5_block2_1_relu (Activa (None, 7, 7, 512)    0           res_conv5_block2_1_bn[0][0]      
__________________________________________________________________________________________________
vgg_block1_pool (MaxPooling2D)  (None, 112, 112, 64) 0           vgg_block1_conv2[0][0]           
__________________________________________________________________________________________________
mobile_conv_pw_11_relu (ReLU)   (None, 14, 14, 512)  0           mobile_conv_pw_11_bn[0][0]       
__________________________________________________________________________________________________
res_conv5_block2_2_conv (Conv2D (None, 7, 7, 512)    2359808     res_conv5_block2_1_relu[0][0]    
__________________________________________________________________________________________________
vgg_block2_conv1 (Conv2D)       (None, 112, 112, 128 73856       vgg_block1_pool[0][0]            
__________________________________________________________________________________________________
mobile_conv_pad_12 (ZeroPadding (None, 15, 15, 512)  0           mobile_conv_pw_11_relu[0][0]     
__________________________________________________________________________________________________
res_conv5_block2_2_bn (BatchNor (None, 7, 7, 512)    2048        res_conv5_block2_2_conv[0][0]    
__________________________________________________________________________________________________
vgg_block2_conv2 (Conv2D)       (None, 112, 112, 128 147584      vgg_block2_conv1[0][0]           
__________________________________________________________________________________________________
mobile_conv_dw_12 (DepthwiseCon (None, 7, 7, 512)    4608        mobile_conv_pad_12[0][0]         
__________________________________________________________________________________________________
res_conv5_block2_2_relu (Activa (None, 7, 7, 512)    0           res_conv5_block2_2_bn[0][0]      
__________________________________________________________________________________________________
vgg_block2_pool (MaxPooling2D)  (None, 56, 56, 128)  0           vgg_block2_conv2[0][0]           
__________________________________________________________________________________________________
mobile_conv_dw_12_bn (BatchNorm (None, 7, 7, 512)    2048        mobile_conv_dw_12[0][0]          
__________________________________________________________________________________________________
res_conv5_block2_3_conv (Conv2D (None, 7, 7, 2048)   1050624     res_conv5_block2_2_relu[0][0]    
__________________________________________________________________________________________________
vgg_block3_conv1 (Conv2D)       (None, 56, 56, 256)  295168      vgg_block2_pool[0][0]            
__________________________________________________________________________________________________
mobile_conv_dw_12_relu (ReLU)   (None, 7, 7, 512)    0           mobile_conv_dw_12_bn[0][0]       
__________________________________________________________________________________________________
res_conv5_block2_3_bn (BatchNor (None, 7, 7, 2048)   8192        res_conv5_block2_3_conv[0][0]    
__________________________________________________________________________________________________
vgg_block3_conv2 (Conv2D)       (None, 56, 56, 256)  590080      vgg_block3_conv1[0][0]           
__________________________________________________________________________________________________
mobile_conv_pw_12 (Conv2D)      (None, 7, 7, 1024)   524288      mobile_conv_dw_12_relu[0][0]     
__________________________________________________________________________________________________
res_conv5_block2_add (Add)      (None, 7, 7, 2048)   0           res_conv5_block1_out[0][0]       
                                                                 res_conv5_block2_3_bn[0][0]      
__________________________________________________________________________________________________
vgg_block3_conv3 (Conv2D)       (None, 56, 56, 256)  590080      vgg_block3_conv2[0][0]           
__________________________________________________________________________________________________
mobile_conv_pw_12_bn (BatchNorm (None, 7, 7, 1024)   4096        mobile_conv_pw_12[0][0]          
__________________________________________________________________________________________________
res_conv5_block2_out (Activatio (None, 7, 7, 2048)   0           res_conv5_block2_add[0][0]       
__________________________________________________________________________________________________
vgg_block3_conv4 (Conv2D)       (None, 56, 56, 256)  590080      vgg_block3_conv3[0][0]           
__________________________________________________________________________________________________
mobile_conv_pw_12_relu (ReLU)   (None, 7, 7, 1024)   0           mobile_conv_pw_12_bn[0][0]       
__________________________________________________________________________________________________
res_conv5_block3_1_conv (Conv2D (None, 7, 7, 512)    1049088     res_conv5_block2_out[0][0]       
__________________________________________________________________________________________________
vgg_block3_pool (MaxPooling2D)  (None, 28, 28, 256)  0           vgg_block3_conv4[0][0]           
__________________________________________________________________________________________________
mobile_conv_dw_13 (DepthwiseCon (None, 7, 7, 1024)   9216        mobile_conv_pw_12_relu[0][0]     
__________________________________________________________________________________________________
res_conv5_block3_1_bn (BatchNor (None, 7, 7, 512)    2048        res_conv5_block3_1_conv[0][0]    
__________________________________________________________________________________________________
vgg_block4_conv1 (Conv2D)       (None, 28, 28, 512)  1180160     vgg_block3_pool[0][0]            
__________________________________________________________________________________________________
mobile_conv_dw_13_bn (BatchNorm (None, 7, 7, 1024)   4096        mobile_conv_dw_13[0][0]          
__________________________________________________________________________________________________
res_conv5_block3_1_relu (Activa (None, 7, 7, 512)    0           res_conv5_block3_1_bn[0][0]      
__________________________________________________________________________________________________
vgg_block4_conv2 (Conv2D)       (None, 28, 28, 512)  2359808     vgg_block4_conv1[0][0]           
__________________________________________________________________________________________________
mobile_conv_dw_13_relu (ReLU)   (None, 7, 7, 1024)   0           mobile_conv_dw_13_bn[0][0]       
__________________________________________________________________________________________________
res_conv5_block3_2_conv (Conv2D (None, 7, 7, 512)    2359808     res_conv5_block3_1_relu[0][0]    
__________________________________________________________________________________________________
vgg_block4_conv3 (Conv2D)       (None, 28, 28, 512)  2359808     vgg_block4_conv2[0][0]           
__________________________________________________________________________________________________
mobile_conv_pw_13 (Conv2D)      (None, 7, 7, 1024)   1048576     mobile_conv_dw_13_relu[0][0]     
__________________________________________________________________________________________________
res_conv5_block3_2_bn (BatchNor (None, 7, 7, 512)    2048        res_conv5_block3_2_conv[0][0]    
__________________________________________________________________________________________________
vgg_block4_conv4 (Conv2D)       (None, 28, 28, 512)  2359808     vgg_block4_conv3[0][0]           
__________________________________________________________________________________________________
mobile_conv_pw_13_bn (BatchNorm (None, 7, 7, 1024)   4096        mobile_conv_pw_13[0][0]          
__________________________________________________________________________________________________
res_conv5_block3_2_relu (Activa (None, 7, 7, 512)    0           res_conv5_block3_2_bn[0][0]      
__________________________________________________________________________________________________
vgg_block4_pool (MaxPooling2D)  (None, 14, 14, 512)  0           vgg_block4_conv4[0][0]           
__________________________________________________________________________________________________
mobile_conv_pw_13_relu (ReLU)   (None, 7, 7, 1024)   0           mobile_conv_pw_13_bn[0][0]       
__________________________________________________________________________________________________
res_conv5_block3_3_conv (Conv2D (None, 7, 7, 2048)   1050624     res_conv5_block3_2_relu[0][0]    
__________________________________________________________________________________________________
vgg_block5_conv1 (Conv2D)       (None, 14, 14, 512)  2359808     vgg_block4_pool[0][0]            
__________________________________________________________________________________________________
mobile_global_average_pooling2d (None, 1024)         0           mobile_conv_pw_13_relu[0][0]     
__________________________________________________________________________________________________
res_conv5_block3_3_bn (BatchNor (None, 7, 7, 2048)   8192        res_conv5_block3_3_conv[0][0]    
__________________________________________________________________________________________________
vgg_block5_conv2 (Conv2D)       (None, 14, 14, 512)  2359808     vgg_block5_conv1[0][0]           
__________________________________________________________________________________________________
mobile_reshape_1 (Reshape)      (None, 1, 1, 1024)   0           mobile_global_average_pooling2d[0
__________________________________________________________________________________________________
res_conv5_block3_add (Add)      (None, 7, 7, 2048)   0           res_conv5_block2_out[0][0]       
                                                                 res_conv5_block3_3_bn[0][0]      
__________________________________________________________________________________________________
vgg_block5_conv3 (Conv2D)       (None, 14, 14, 512)  2359808     vgg_block5_conv2[0][0]           
__________________________________________________________________________________________________
mobile_dropout (Dropout)        (None, 1, 1, 1024)   0           mobile_reshape_1[0][0]           
__________________________________________________________________________________________________
res_conv5_block3_out (Activatio (None, 7, 7, 2048)   0           res_conv5_block3_add[0][0]       
__________________________________________________________________________________________________
vgg_block5_conv4 (Conv2D)       (None, 14, 14, 512)  2359808     vgg_block5_conv3[0][0]           
__________________________________________________________________________________________________
mobile_conv_preds (Conv2D)      (None, 1, 1, 1000)   1025000     mobile_dropout[0][0]             
__________________________________________________________________________________________________
res_avg_pool (GlobalAveragePool (None, 2048)         0           res_conv5_block3_out[0][0]       
__________________________________________________________________________________________________
vgg_block5_pool (MaxPooling2D)  (None, 7, 7, 512)    0           vgg_block5_conv4[0][0]           
__________________________________________________________________________________________________
mobile_reshape_2 (Reshape)      (None, 1000)         0           mobile_conv_preds[0][0]          
__________________________________________________________________________________________________
flatten (Flatten)               (None, 2048)         0           res_avg_pool[0][0]               
__________________________________________________________________________________________________
flatten_1 (Flatten)             (None, 25088)        0           vgg_block5_pool[0][0]            
__________________________________________________________________________________________________
flatten_2 (Flatten)             (None, 1000)         0           mobile_reshape_2[0][0]           
__________________________________________________________________________________________________
dropout (Dropout)               (None, 2048)         0           flatten[0][0]                    
__________________________________________________________________________________________________
dropout_1 (Dropout)             (None, 25088)        0           flatten_1[0][0]                  
__________________________________________________________________________________________________
dropout_2 (Dropout)             (None, 1000)         0           flatten_2[0][0]                  
__________________________________________________________________________________________________
res_weights (Dense)             (None, 256)          524544      dropout[0][0]                    
__________________________________________________________________________________________________
vgg_weights (Dense)             (None, 256)          6422784     dropout_1[0][0]                  
__________________________________________________________________________________________________
mobile_weights (Dense)          (None, 256)          256256      dropout_2[0][0]                  
__________________________________________________________________________________________________
dense_6 (Dense)                 (None, 256)          65792       res_weights[0][0]                
__________________________________________________________________________________________________
dense_7 (Dense)                 (None, 256)          65792       vgg_weights[0][0]                
__________________________________________________________________________________________________
dense_8 (Dense)                 (None, 256)          65792       mobile_weights[0][0]             
__________________________________________________________________________________________________
concatenate (Concatenate)       (None, 768)          0           dense_6[0][0]                    
                                                                 dense_7[0][0]                    
                                                                 dense_8[0][0]                    
__________________________________________________________________________________________________
dense_9 (Dense)                 (None, 4)            3076        concatenate[0][0]                
==================================================================================================
Total params: 55,269,996
Trainable params: 200,452
Non-trainable params: 55,069,544
__________________________________________________________________________________________________